…
2022-05-18 16:52:07,040 [INFO :__main__] Loading Dataset objects ......
2022-05-18 16:53:52,248 [INFO :__main__] Preparing vocabularies ......
2022-05-18 16:53:52,248 [INFO :__main__] Loading structural data ......
2022-05-18 16:55:40,745 [INFO :__main__]  * vocabulary size. source = 50002; target = 35848
2022-05-18 16:55:40,745 [INFO :__main__]  * number of training batches. 2741
2022-05-18 16:55:40,745 [INFO :__main__]  * maximum batch size. 32
2022-05-18 17:14:52,265 [INFO :__main__]  * Number of parameters to learn = 57741719
2022-05-18 17:14:52,269 [INFO :__main__] UnifiedModel(
  (seq_encoder): RNNEncoder(
    (word_emb): Embedding(50002, 300, padding_idx=0)
    (rnn): GRU(300, 256, batch_first=True, dropout=0.5, bidirectional=True)
  )
  (encoder_transformer): EncoderTransformer(
    (attn): ConcatAttention(
      (linear_pre): Linear(in_features=512, out_features=64, bias=True)
      (linear_q): Linear(in_features=512, out_features=64, bias=False)
      (linear_v): Linear(in_features=64, out_features=1, bias=False)
      (sftmax): Softmax(dim=1)
      (tanh): Tanh()
    )
  )
  (graph_encoder): GraphEncoder(
    (feat_embs): ModuleList(
      (0): Embedding(4, 32, padding_idx=0)
      (1): Embedding(50, 32, padding_idx=0)
    )
    (feature_transform): Linear(in_features=320, out_features=256, bias=True)
    (layer_stack): ModuleList(
      (0): GraphEncoderLayer(
        (edge_in_list): ModuleList(
          (0): Linear(in_features=256, out_features=256, bias=False)
          (1): Linear(in_features=256, out_features=256, bias=False)
          (2): Linear(in_features=256, out_features=256, bias=False)
        )
        (edge_out_list): ModuleList(
          (0): Linear(in_features=256, out_features=256, bias=False)
          (1): Linear(in_features=256, out_features=256, bias=False)
          (2): Linear(in_features=256, out_features=256, bias=False)
        )
        (graph_in_attention): GraphAttention(
          (dropout): Dropout(p=0.1, inplace=False)
          (attention): Linear(in_features=512, out_features=1, bias=True)
          (leaky_relu): LeakyReLU(negative_slope=0.1)
        )
        (graph_out_attention): GraphAttention(
          (dropout): Dropout(p=0.1, inplace=False)
          (attention): Linear(in_features=512, out_features=1, bias=True)
          (leaky_relu): LeakyReLU(negative_slope=0.1)
        )
        (output_gate): Propagator(
          (reset_gate): Sequential(
            (0): Linear(in_features=768, out_features=256, bias=True)
            (1): Sigmoid()
            (2): Dropout(p=0.5, inplace=False)
          )
          (update_gate): Sequential(
            (0): Linear(in_features=768, out_features=256, bias=True)
            (1): Sigmoid()
            (2): Dropout(p=0.5, inplace=False)
          )
          (transform): Sequential(
            (0): Linear(in_features=768, out_features=256, bias=True)
            (1): Tanh()
          )
        )
      )
      (1): GraphEncoderLayer(
        (edge_in_list): ModuleList(
          (0): Linear(in_features=256, out_features=256, bias=False)
          (1): Linear(in_features=256, out_features=256, bias=False)
          (2): Linear(in_features=256, out_features=256, bias=False)
        )
        (edge_out_list): ModuleList(
          (0): Linear(in_features=256, out_features=256, bias=False)
          (1): Linear(in_features=256, out_features=256, bias=False)
          (2): Linear(in_features=256, out_features=256, bias=False)
        )
        (graph_in_attention): GraphAttention(
          (dropout): Dropout(p=0.1, inplace=False)
          (attention): Linear(in_features=512, out_features=1, bias=True)
          (leaky_relu): LeakyReLU(negative_slope=0.1)
        )
        (graph_out_attention): GraphAttention(
          (dropout): Dropout(p=0.1, inplace=False)
          (attention): Linear(in_features=512, out_features=1, bias=True)
          (leaky_relu): LeakyReLU(negative_slope=0.1)
        )
        (output_gate): Propagator(
          (reset_gate): Sequential(
            (0): Linear(in_features=768, out_features=256, bias=True)
            (1): Sigmoid()
            (2): Dropout(p=0.5, inplace=False)
          )
          (update_gate): Sequential(
            (0): Linear(in_features=768, out_features=256, bias=True)
            (1): Sigmoid()
            (2): Dropout(p=0.5, inplace=False)
          )
          (transform): Sequential(
            (0): Linear(in_features=768, out_features=256, bias=True)
            (1): Tanh()
          )
        )
      )
      (2): GraphEncoderLayer(
        (edge_in_list): ModuleList(
          (0): Linear(in_features=256, out_features=256, bias=False)
          (1): Linear(in_features=256, out_features=256, bias=False)
          (2): Linear(in_features=256, out_features=256, bias=False)
        )
        (edge_out_list): ModuleList(
          (0): Linear(in_features=256, out_features=256, bias=False)
          (1): Linear(in_features=256, out_features=256, bias=False)
          (2): Linear(in_features=256, out_features=256, bias=False)
        )
        (graph_in_attention): GraphAttention(
          (dropout): Dropout(p=0.1, inplace=False)
          (attention): Linear(in_features=512, out_features=1, bias=True)
          (leaky_relu): LeakyReLU(negative_slope=0.1)
        )
        (graph_out_attention): GraphAttention(
          (dropout): Dropout(p=0.1, inplace=False)
          (attention): Linear(in_features=512, out_features=1, bias=True)
          (leaky_relu): LeakyReLU(negative_slope=0.1)
        )
        (output_gate): Propagator(
          (reset_gate): Sequential(
            (0): Linear(in_features=768, out_features=256, bias=True)
            (1): Sigmoid()
            (2): Dropout(p=0.5, inplace=False)
          )
          (update_gate): Sequential(
            (0): Linear(in_features=768, out_features=256, bias=True)
            (1): Sigmoid()
            (2): Dropout(p=0.5, inplace=False)
          )
          (transform): Sequential(
            (0): Linear(in_features=768, out_features=256, bias=True)
            (1): Tanh()
          )
        )
      )
    )
    (gate): Linear(in_features=512, out_features=256, bias=False)
    (activate): Sequential(
      (0): Linear(in_features=512, out_features=256, bias=False)
      (1): Tanh()
    )
  )
  (decoder_transformer): DecoderTransformer()
  (decoder): RNNDecoder(
    (ans_emb): Embedding(50002, 300, padding_idx=0)
    (decInit): DecInit(
      (initer): Linear(in_features=512, out_features=512, bias=True)
      (tanh): Tanh()
    )
    (word_emb): Embedding(35848, 300, padding_idx=0)
    (rnn): StackedRNN(
      (layers): ModuleList(
        (0): GRUCell(1068, 512)
      )
    )
    (attn): ConcatAttention(
      (linear_pre): Linear(in_features=768, out_features=64, bias=True)
      (linear_q): Linear(in_features=512, out_features=64, bias=False)
      (linear_v): Linear(in_features=64, out_features=1, bias=False)
      (sftmax): Softmax(dim=1)
      (tanh): Tanh()
      (linear_cov): Linear(in_features=1, out_features=64, bias=False)
    )
    (readout): Linear(in_features=1580, out_features=512, bias=True)
    (maxout): MaxOut()
    (copy_switch): Linear(in_features=1280, out_features=1, bias=True)
    (dropout): Dropout(p=0.5, inplace=False)
  )
  (generator): Linear(in_features=256, out_features=35848, bias=False)
  (classifier): Sequential(
    (0): Linear(in_features=256, out_features=1, bias=False)
    (1): Sigmoid()
  )
)
2022-05-18 17:14:52,272 [INFO :__main__] 
2022-05-18 17:14:52,272 [INFO :__main__]  *  [ Epoch 0 ]:   
2022-05-18 17:14:52,272 [INFO :__main__] Shuffling...
2022-05-18 17:29:54,810 [INFO :__main__]   +  Training accuracy: 75.279 %, loss: 0.00065
2022-05-18 17:29:54,810 [INFO :__main__]   +  Validation accuracy: 78.264 %, loss: 0.00058
